…
CE: 0.386681, ACC: 0.860
epoch  2 :
CE: 0.613520, ACC: 0.800
CE: 0.240288, ACC: 0.920
CE: 0.193994, ACC: 0.940
CE: 0.340449, ACC: 0.900
CE: 0.233968, ACC: 0.940
CE: 0.292143, ACC: 0.860
CE: 0.096714, ACC: 0.960
CE: 0.222491, ACC: 0.940
CE: 0.068472, ACC: 1.000
CE: 0.137275, ACC: 0.960
CE: 0.168910, ACC: 0.940
Final train step - CE: 0.114564, ACC: 0.940
Training completed in 21.53 seconds
----------------------------------------------------------------
        Layer (type)               Output Shape         Param #
================================================================
            Conv2d-1           [-1, 32, 28, 28]             832
              ReLU-2           [-1, 32, 28, 28]               0
         MaxPool2d-3           [-1, 32, 14, 14]               0
           Flatten-4                 [-1, 6272]               0
            Linear-5                 [-1, 1024]       6,423,552
              ReLU-6                 [-1, 1024]               0
            Linear-7                   [-1, 10]          10,250
================================================================
Total params: 6,434,634
Trainable params: 6,434,634
Non-trainable params: 0
----------------------------------------------------------------
Input size (MB): 0.00
Forward/backward pass size (MB): 0.49
Params size (MB): 24.55
Estimated Total Size (MB): 25.04
----------------------------------------------------------------
------------------------------------------
…
F1 score for each class: [0.98076923 0.98681898 0.96475133 0.93333333 0.95287958 0.94483889
 0.95461826 0.96524719 0.93190349 0.93925926]
Accuracy for the dataset: [0.9887755102040816, 0.9894273127753304, 0.9680232558139535, 0.9841584158415841, 0.9266802443991853, 0.9697309417040358, 0.9331941544885177, 0.9591439688715954, 0.8921971252566735, 0.9425173439048563]
Balanced Accuracy for the dataset: 0.9553848273259815
------------------------------------------
----------------------------------------------------------------
        Layer (type)               Output Shape         Param #
================================================================
            Conv2d-1           [-1, 32, 28, 28]             832
              ReLU-2           [-1, 32, 28, 28]               0
         MaxPool2d-3           [-1, 32, 14, 14]               0
            Conv2d-4           [-1, 64, 14, 14]          51,264
              ReLU-5           [-1, 64, 14, 14]               0
         MaxPool2d-6             [-1, 64, 7, 7]               0
           Flatten-7                 [-1, 3136]               0
            Linear-8                 [-1, 1024]       3,212,288
              ReLU-9                 [-1, 1024]               0
           Linear-10                   [-1, 10]          10,250
================================================================
Total params: 3,274,634
Trainable params: 3,274,634
Non-trainable params: 0
----------------------------------------------------------------
Input size (MB): 0.00
Forward/backward pass size (MB): 0.69
Params size (MB): 12.49
Estimated Total Size (MB): 13.18
----------------------------------------------------------------
--------------------------- Model 5 - 50 minibatch --------------------------
…
F1 score for each class: [0.99389002 0.99075297 0.98701299 0.98711596 0.98773006 0.98216276
 0.98683518 0.98383146 0.98105479 0.9817284 ]
Accuracy for the dataset: [0.9959183673469387, 0.9911894273127754, 0.9941860465116279, 0.9861386138613861, 0.9837067209775967, 0.9876681614349776, 0.9780793319415448, 0.9766536964980544, 0.9835728952772074, 0.9851337958374629]
Balanced Accuracy for the dataset: 0.9862247056999571
------------------------------------------
----------------------------------------------------------------
        Layer (type)               Output Shape         Param #
================================================================
            Conv2d-1           [-1, 32, 28, 28]             832
              ReLU-2           [-1, 32, 28, 28]               0
         MaxPool2d-3           [-1, 32, 14, 14]               0
            Conv2d-4           [-1, 64, 14, 14]          51,264
              ReLU-5           [-1, 64, 14, 14]               0
         MaxPool2d-6             [-1, 64, 7, 7]               0
           Flatten-7                 [-1, 3136]               0
           Dropout-8                 [-1, 3136]               0
            Linear-9                 [-1, 1024]       3,212,288
             ReLU-10                 [-1, 1024]               0
           Linear-11                   [-1, 10]          10,250
================================================================
Total params: 3,274,634
Trainable params: 3,274,634
Non-trainable params: 0
----------------------------------------------------------------
Input size (MB): 0.00
Forward/backward pass size (MB): 0.71
Params size (MB): 12.49
Estimated Total Size (MB): 13.20
----------------------------------------------------------------
--------------------------- Model 5 - 100 minibatch --------------------------
…
